…
taking long for the first epoch make sure you have changed the runtime type to GPU. You can change it by going to the runtime option and in the change runtime type selected GPU as your hardware accelerator. . Our model above performed really well. It is prediction at an accuracy of 87% on the validation data( the model hasn&#39;t seen this data during training) . model_1.summary() . Model: &#34;sequential_1&#34; _________________________________________________________________ Layer (type) Output Shape Param # ================================================================= conv2d_8 (Conv2D) (None, 222, 222, 10) 280 conv2d_9 (Conv2D) (None, 220, 220, 10) 910 max_pooling2d_3 (MaxPooling (None, 110, 110, 10) 0 2D) conv2d_10 (Conv2D) (None, 108, 108, 10) 910 conv2d_11 (Conv2D) (None, 106, 106, 10) 910 max_pooling2d_4 (MaxPooling (None, 53, 53, 10) 0 2D) flatten_1 (Flatten) (None, 28090) 0 dense_1 (Dense) (None, 1) 28091 ================================================================= Total params: 31,101 Trainable params: 31,101 Non-trainable params: 0 _________________________________________________________________ . Using the same model as before (Non-CNN model) . Let&#39;s replicate the model we have built in a previous post. . The model we are building is from TensorFlow Playground . tf.random.set_seed(42)
…
ep - loss: 0.6752 - accuracy: 0.7227 - val_loss: 2.5866 - val_accuracy: 0.5020 Epoch 4/5 47/47 [==============================] - 9s 200ms/step - loss: 0.8349 - accuracy: 0.7020 - val_loss: 0.5200 - val_accuracy: 0.7460 Epoch 5/5 47/47 [==============================] - 10s 204ms/step - loss: 0.5538 - accuracy: 0.7507 - val_loss: 0.4485 - val_accuracy: 0.8020 . model_3.summary() . Model: &#34;sequential_3&#34; _________________________________________________________________ Layer (type) Output Shape Param # ================================================================= flatten_3 (Flatten) (None, 150528) 0 dense_5 (Dense) (None, 100) 15052900 dense_6 (Dense) (None, 100) 10100 dense_7 (Dense) (None, 100) 10100 dense_8 (Dense) (None, 1) 101 ================================================================= Total params: 15,073,201 Trainable params: 15,073,201 Non-trainable params: 0 _________________________________________________________________ . The model_3 has around 15 million parameters. Model_3 has around 500 times more parameters to train than the model_2 (the CNN model). And this shows the true power of convolution neural n
…
,224,3)), Conv2D(10,2, activation = &quot;relu&quot;), Conv2D(10,3 , activation = &quot;relu&quot;), Flatten(), Dense(1, activation = &quot;sigmoid&quot;) # Output layer(working with binary classification so only 1 output neuron) ]) # Compile the model model_4.compile(loss = &quot;binary_crossentropy&quot;, optimizer = Adam(), metrics = [&quot;accuracy&quot;]) . model_4.summary() . Model: &#34;sequential_4&#34; _________________________________________________________________ Layer (type) Output Shape Param # ================================================================= conv2d_12 (Conv2D) (None, 222, 222, 10) 280 conv2d_13 (Conv2D) (None, 221, 221, 10) 410 conv2d_14 (Conv2D) (None, 219, 219, 10) 910 flatten_4 (Flatten) (None, 479610) 0 dense_9 (Dense) (None, 1) 479611 ================================================================= Total params: 481,211 Trainable params: 481,211 Non-trainable params: 0 _________________________________________________________________ . 4. Fit the Model . len(train_data), len(test_data) . (47, 16) . history_4 = model_4.fit(train_data, epochs = 5, steps_per_epoch = len(train_data), validation_data = test_data, validation_steps 
…
ep - loss: 0.4438 - accuracy: 0.8033 - val_loss: 0.3693 - val_accuracy: 0.8480 Epoch 4/5 47/47 [==============================] - 10s 216ms/step - loss: 0.3932 - accuracy: 0.8340 - val_loss: 0.3502 - val_accuracy: 0.8400 Epoch 5/5 47/47 [==============================] - 11s 237ms/step - loss: 0.4066 - accuracy: 0.8187 - val_loss: 0.3302 - val_accuracy: 0.8660 . model_5.summary() . Model: &#34;sequential_5&#34; _________________________________________________________________ Layer (type) Output Shape Param # ================================================================= conv2d_15 (Conv2D) (None, 222, 222, 10) 280 max_pooling2d_5 (MaxPooling (None, 111, 111, 10) 0 2D) conv2d_16 (Conv2D) (None, 109, 109, 10) 910 max_pooling2d_6 (MaxPooling (None, 54, 54, 10) 0 2D) conv2d_17 (Conv2D) (None, 52, 52, 10) 910 max_pooling2d_7 (MaxPooling (None, 26, 26, 10) 0 2D) flatten_5 (Flatten) (None, 6760) 0 dense_10 (Dense) (None, 1) 6761 ================================================================= Total params: 8,861 Trainable params: 8,861 Non-trainable params: 0 _________________________________________________________________ . plot_loss_curves(history_5) . Finding Data Augmentation . train_datagen_augmented = ImageDataGenerator(rescale = 1/255., rotation_range= 0.2, # how much do you want to rotate an image? shear_range=
…
odel_9 = Sequential([ Conv2D(10, 3, activation=&#39;relu&#39;, input_shape=(224, 224, 3)), MaxPool2D(), Conv2D(10, 3, activation=&#39;relu&#39;), MaxPool2D(), Flatten(), Dense(10, activation=&#39;softmax&#39;) ]) # Compile the model model_9.compile(loss=&quot;categorical_crossentropy&quot;, optimizer=tf.keras.optimizers.Adam(), metrics=[&quot;accuracy&quot;]) . model_9.summary() . Model: &#34;sequential_13&#34; _________________________________________________________________ Layer (type) Output Shape Param # ================================================================= conv2d_42 (Conv2D) (None, 222, 222, 10) 280 max_pooling2d_26 (MaxPoolin (None, 111, 111, 10) 0 g2D) conv2d_43 (Conv2D) (None, 109, 109, 10) 910 max_pooling2d_27 (MaxPoolin (None, 54, 54, 10) 0 g2D) flatten_13 (Flatten) (None, 29160) 0 dense_18 (Dense) (None, 10) 291610 ================================================================= Total params: 292,800 Trainable params: 292,800 Non-trainable params: 0 _________________________________________________________________ . history_9 = model_9.fit(train_data, epochs=5, steps_per_epoch=len(train_data), validation_data=test_data, validation_steps=len(test_data)) . Epoch 1/5 235/235 [==============================] -
…
